Experiment/pre_trained_model/Actor/GraphCL.GCN.128hidden_dim.pth (torch, 546336 bytes, 4 tensors)

conv_layers.0.bias f4 [128]
00000000: ebf7 e0bd 4808 7ebd 7214 a6bd 9c29 84bd
00000010: 2648 9fbd 3883 40bd 3628 69bd d1fc 92bd
00000020: 01da 27bd 1da2 16be 52a1 41bd 1258 2abe
00000030: 015d 9bbd e2d3 d9bd 3aa2 30bd b95b 37bd
00000040: 1494 1bbe b097 02be d34d 35bd e3ad bfbd
00000050: 6ed9 9bbe d2d6 fcbd f15c 2bbe 05c9 f1bd
00000060: 0ee4 5cbd 6d7a d9bc 5c51 9fbc 17bf 55bd
00000070: 942b 87be f398 80bc 3bf8 2abd 3f41 a6bd
00000080: c62d 61bd 76c6 0b3d da42 aebd 553b ea3b
00000090: d303 29bd 74d4 fabc 5eb4 ad3c 1710 d3bd
000000a0: 74ba c7bc bf79 a2bd 1930 5d3d c4b0 7dbd
000000b0: 5e09 38bc aafe 6abd 0fbb cabd 5863 aabd
000000c0: d1a5 d9bd 26b5 fb3b 9ed7 55bd 5428 45be
000000d0: 971b fdbc 08dd 0ebe 542f 7dbd 3ada 89bd
000000e0: 5a3f 29bd ab94 9bbe eefb cdbd 989a c7bc
000000f0: c0b0 50bc 3f82 9a3c d7cd 44bd b048 87bd
00000100: 618c c1bc e482 84bd fa75 4fbd 0306 d0bd
00000110: 9663 ccbc 3500 d4bc 97d0 fe3c fa76 863c
00000120: 1d0c a6bd 0092 a8bb 855d 2dbd b950 94bd
00000130: e24d cebd 7a30 123d 408d d5bc adc3 25bc
00000140: 4cce 33bd a9a7 71be 2467 69be 9208 f9bc
00000150: 3ef4 ecbc 2718 07be f6c3 53bc f11b 26bb
00000160: b328 513c ca9f 3abd a773 6fbe 12a0 263c
00000170: 5ecc 51bd 3bd4 19bd 81ee 1c3d 9cc0 48bc
00000180: 4e4d d8bd d846 10bd b0bb 6cbd eba9 8f3c
00000190: 3be7 11be d98b e0bc de94 75bd cbfa 07bd
000001a0: 41fe 97bd 7c50 0cbd cdd6 04bd cee1 e0bd
000001b0: be18 593c a9b2 40bd afab 9e3c 332c 2cbd
000001c0: ce22 9fbd 5186 2fbe 0ac6 3abd ad9a 8ebd
000001d0: fbb8 86bd 71c5 dcbb db57 99bd 4d4e 8fbd
000001e0: f642 9f3b aecb 123c 9769 5bbd ae53 34bd
000001f0: ce27 91bd e679 72bc a0a5 23bd 5098 9dbd
-0.109847866 -0.062019616 -0.081093684 -0.06453249 -0.07777433 -0.04700014 -0.056923114 -0.07177127
-0.04097939 -0.14710279 -0.047272988 -0.16635159 -0.075860985 -0.106361166 -0.04312346 -0.044765208
-0.15193206 -0.12753177 -0.044263672 -0.09359338 -0.30439323 -0.12345661 -0.16734673 -0.118059196
-0.053928427 -0.026547635 -0.019447975 -0.05218419 -0.26400435 -0.015697932 -0.041740637 -0.081179135
-0.054975294 0.034124814 -0.08508845 0.007148186 -0.041263413 -0.030618884 0.02120417 -0.10305803
-0.0243809 -0.079333775 0.054000948 -0.061936155 -0.011232702 -0.057371773 -0.0989896 -0.083197296
-0.1062733 0.0076815067 -0.05220758 -0.19253665 -0.030896945 -0.13951504 -0.061812714 -0.067310765
-0.041320182 -0.30386862 -0.100578174 -0.024365708 -0.012737453 0.018860934 -0.048047867 -0.06605661
-0.023626508 -0.06470278 -0.05064962 -0.10157397 -0.02494983 -0.025879005 0.031105323 0.016414154
-0.08107779 -0.0051443577 -0.042325515 -0.07241959 -0.10073449 0.035690762 -0.02606833 -0.0101174535
-0.043897912 -0.23599114 -0.22793251 -0.030399594 -0.028925058 -0.13192807 -0.012925139 -0.0025346244
0.012766051 -0.045562543 -0.23383962 0.01017 -0.05122029 -0.037555914 0.038313393 -0.012252953
-0.1056162 -0.035223812 -0.05779618 0.017537078 -0.14248364 -0.027410435 -0.059956424 -0.03319816
-0.07421542 -0.034256443 -0.032431412 -0.10980569 0.013250528 -0.047045384 0.019368974 -0.04203434
-0.0777031 -0.17141081 -0.04559902 -0.06963096 -0.06578251 -0.006737404 -0.0748746 -0.069973566
0.0048602773 0.008959694 -0.053567495 -0.044025116 -0.0708767 -0.014799571 -0.039952874 -0.07695067

conv_layers.0.lin.weight f4 [128, 932]
00000000: 490f e13c f523 403c c1ca 4d3b 699e d13b
00000010: 11ca 6ebb fde2 413c 124b e9bc 552b e73a
00000020: 9383 f1bb 6237 17bb cc8f f53c 12ad 823c
00000030: 4497 a13c 2149 b43d 1646 e53c dd30 343d
00000040: b7ec 5c3b 93cf 4bbc afd5 c13b e69c ddbc
00000050: 4542 07bd 42c7 4cbd 7d67 fd3c 234d 243b
00000060: 70a1 1eba 664e 85bc 6ab6 01bc ce15 88bb
00000070: f25f c5ba d04a 8f3a d058 1aba 4d27 3b3d
00000080: fda9 b8bc 436a c9ba 5c14 48bb 77cd 88ba
00000090: 7f9c 64bd 1fb7 f13c 399a ee3c 3a62 0f3c
000000a0: 0765 2f3d ba56 fc3b 79f5 113c 3df3 8b3c
000000b0: 41a6 d83c c9c3 61bb 50fa 31bc 4cc1 5a3d
000000c0: 6a1b 883c 57bc 1fbd 0ede a73c f544 b2bb
000000d0: ff14 5b3c c302 8f3a d412 db3c 4b39 5e3e
000000e0: 12ab 74be 2a97 303d 1672 223a 0f6b 4a3d
000000f0: 9204 e4bb f6d0 35bd 0fbf 89bc 10b6 e23b
00000100: 268f 953d 6b45 d03b bb3d 5bbc 3a97 9b3c
00000110: a371 973b 346e 1cbb 2503 163e c4ad 9ebb
00000120: 6da4 bf3c cfb7 ae3d 7b0a 0b3c d1c2 8f3b
00000130: fc2f 8a3c 1284 f2bd c173 693b eb2e d73a
00000140: ba38 763c 1030 263b ad4f 8b3d 56e9 0e3d
00000150: a38d 893c a726 823b 2e04 5a3c e931 61bc
00000160: 5b3e 173b 8d33 b53c 6f6b 2e3d 649e 36bc
00000170: 1375 f9bd 42a5 b93b 6d6e ac3c 671f 03bc
00000180: ad4b afbb 5895 293b 5e5b 1c3c 6c52 203c
00000190: 5ea0 203d 0419 9139 0f43 47bc e508 8a3b
000001a0: abe4 01bc 2872 0fbb 4569 ba3e cb0a 13bc
000001b0: 04eb 593d b0eb dd3b 0e81 dbb9 7380 e1bc
000001c0: 43ea 693c 3a64 f93b dbc1 1d3c 0359 3ebc
000001d0: a76b 293c 260b 863d 2831 983d 9157 a6ba
000001e0: 4a8f 383d 5f9d a4bd 99e7 85bc f01d 85bc
000001f0: c1ee 9b3a c89f e33b 90b7 bdbc 80e6 16bc
00000200: 8545 c63b 9068 c83a ea80 bb3d ef40 b53b
00000210: 83ed acbd 810a 203c 5dcb 91bc 5fdb 653c
00000220: 4e85 113d 0389 f43b 7887 cebd 6b44 da3b
00000230: c801 373c 0639 edba fab2 b23d fd35 87bc
00000240: 8dae 27be 296f e6bb 848e c43b dad4 2f3c
00000250: e61e 043d 4691 3d3c ac41 00bc 17ac 0cba
00000260: 2c71 a93b abb9 c9bc e803 ba3c fc18 4839
00000270: 0c56 403a 57e8 db3b a77e d33c d1de 92bb
00000280: ca44 9fbb 5734 29ba 9ad8 123b aaa0 6cbc
00000290: 3fb4 a1bb 92d7 ddbd 7b0b 1ebd 8719 763c
000002a0: 80cf cdbb 803d 9a3c 92d3 403c e0d2 563c
000002b0: ac6d 6d3b d599 263d d8f8 3bbc 8f9b a5ba
000002c0: c50e 4b3d f5a8 5a3d 129e c53c 68a0 9a3c
000002d0: 272a 353d 1db8 823c 449e bfba c845 2d3b
000002e0: 4fdd 6cba 726e b0b9 87ed 9a3b ced0 08bb
000002f0: 60da 20bc 56f9 b43b 7191 cdbb 880d e13c
00000300: cef8 243d ad41 fc3c f91f 91bb 7481 143b
00000310: 18e6 36ba 0bba 7d3c e5da 553c e5f9 753c
00000320: 8201 163d a1c3 98bd 2e8e 2abc 36e5 cf3c
00000330: 314d 83bc e2ee 543c 0135 c93c ff30 64bb
00000340: ac12 8f3c 8ae6 673d 0ffa 8abc 59f8 04bc
00000350: 1007 cab9 206b 943b 75e3 833b 7e3e b2bc
00000360: a80d 1ebc 6d71 ddbb 47e7 0f3c 4e56 203c
00000370: fb06 993b 2456 743c 0a28 493b 29d5 bcbb
00000380: 7a00 cbbb dcb2 88bc 42b9 8dbb 5835 3dbc
00000390: ec9a 313b e22a 8e3b 507e 9bbb f315 983b
000003a0: fa08 b8bc 674b b63b 9693 7739 d65d 91ba
000003b0: 5982 903b 0f34 223d 3ef6 fd3b cedd b93c
000003c0: 49e7 05ba 241c bebb 6431 bf3b b645 3e3c
000003d0: f588 033d ce5a f23c abcf a13b 68c1 0dbd
000003e0: 55a5 c03a 4e4f 1c3b 2ceb da3e 4504 5dbb
000003f0: 14d3 09be d9f3 ddbb 9904 273d 3835 76bb
0.027473109 0.011727323 0.0031401368 0.006397058 -0.003643636 0.011833903 -0.02847818 0.0017636815
-0.007370421 -0.0023073782 0.029975794 0.015951667 0.01972545 0.08803011 0.027987521 0.043991912
0.003371043 -0.012439626 0.0059153656 -0.027052354 -0.033022184 -0.049994715 0.030933136 0.002507039
-0.0006051278 -0.016272735 -0.007917026 -0.00415299 -0.0015058501 0.001093233 -0.0005887868 0.045691777
-0.022541994 -0.0015366751 -0.0030529713 -0.001043721 -0.05581331 0.029506264 0.029126273 0.008751446
0.042820957 0.0077007683 0.008908623 0.017083758 0.026446464 -0.0034448972 -0.010862902 0.053407
0.016614635 -0.038997974 0.020491626 -0.005440349 0.013371705 0.0010910857 0.026742376 0.21701543
-0.23893383 0.04311291 0.00061968097 0.049418505 -0.0069585526 -0.044388734 -0.016814737 0.006918676
0.07302694 0.0063559315 -0.013381417 0.018993009 0.004621701 -0.0023869397 0.14649637 -0.004842492
0.023393834 0.085311525 0.008486385 0.0043872376 0.016868584 -0.11841597 0.0035621973 0.0016417181
0.015028173 0.0025358237 0.06802306 0.034890495 0.01679117 0.003971893 0.013306661 -0.01374481
0.0023077938 0.022119308 0.042582925 -0.011146162 -0.12180533 0.005665452 0.021048749 -0.008003092
-0.0053495974 0.002587637 0.009543268 0.009785276 0.039215438 0.00027675193 -0.012161984 0.004212486
-0.007928054 -0.002188811 0.3640844 -0.008974741 0.053202644 0.006772481 -0.00041867088 -0.02752707
0.014277044 0.007610825 0.009628738 -0.011617902 0.010340608 0.06545095 0.07431251 -0.0012690892
0.045058526 -0.08037829 -0.016345786 -0.016249627 0.0011896716 0.0069465376 -0.023158818 -0.009210229
0.006050768 0.0015289951 0.09155448 0.0055314223 -0.08443739 0.009768129 -0.017797166 0.014029353
0.03552752 0.007462622 -0.10084432 0.006660988 0.011169858 -0.0018098659 0.08725543 -0.016505236
-0.1637518 -0.0070322943 0.0059984345 0.0107319 0.03225603 0.01157028 -0.007828157 -0.00053662196
0.005170962 -0.024624666 0.02270694 0.00019082794 0.0007337041 0.0067110467 0.025817228 -0.004482128
-0.004860495 -0.00064546376 0.0022406937 -0.014442602 -0.004934817 -0.108321324 -0.038585167 0.015020735
-0.0062808394 0.018828154 0.011769192 0.0131118 0.00362287 0.04067405 -0.011472903 -0.0012634861
0.049574632 0.053383786 0.024123225 0.018875316 0.044229653 0.015956933 -0.001461931 0.0026439298
-0.0009035663 -0.00033651624 0.0047280225 -0.002087641 -0.00981769 0.005522887 -0.0062734415 0.027472273
0.04027634 0.030793035 -0.0044288603 0.0022660168 -0.00069770357 0.015486251 0.013052677 0.015013193
0.03662253 -0.07459188 -0.010409875 0.025377851 -0.016028019 0.012996407 0.024561407 -0.0034819243
0.017464958 0.056616344 -0.01696494 -0.008115851 -0.00038533704 0.004529372 0.0040249177 -0.021758314
-0.009646811 -0.006757906 0.008783168 0.009786202 0.0046700216 0.014913116 0.003069403 -0.0057627154
-0.006195125 -0.01668685 -0.004325063 -0.011548363 0.0027100397 0.004338608 -0.004745282 0.0046412884
-0.022465218 0.005563188 0.00023610736 -0.0011090587 0.00441007 0.03960043 0.0077503016 0.022688773
-0.00051080115 -0.0058016945 0.0058347452 0.0116133 0.032113034 0.029584315 0.004938086 -0.034608275
0.001469771 0.002385098 0.42757547 -0.0033724469 -0.13459426 -0.0067734537 0.04077587 -0.0037568342

conv_layers.1.bias f4 [128]
00000000: 4a35 f7bc dbb4 46bd 2729 293d 5744 e3bc
00000010: df80 153d 5bb4 4e3d 5e60 24bc 56e1 eb3d
00000020: 2ffc 313d 5138 d4bd 3815 9c3c d45f 413e
00000030: 600b c8bc 180d 8e3d a8d8 c9bd 119b 86bc
00000040: 2a20 393b 3dbb 30bd 14e4 a6ba cd73 a93d
00000050: b6cd 333d ab49 9b3c bf2a 27bc c222 c63c
00000060: 6370 d5bc 48c3 be3d a73f b1ba 8479 013d
00000070: 3eaf e83d ea74 99bd 979b 843d f1d3 403d
00000080: 6144 bbbc c43f b2bd ac21 d33c c9fe 9ebd
00000090: cc6d 0f3e 4e71 893d 7b2b 823c f92f fdbb
000000a0: 89d6 dcbc 467a 863d 93d0 bbbc 1602 053e
000000b0: 38ac 413d a42b 10bd d7ff 08bd 6530 8abd
000000c0: 8552 7fbb 1317 7b3d f227 81bc 76b1 9c3d
000000d0: 28cd 41bd eff8 683d af7b 86b8 e79e 343c
000000e0: fcbc e7bc 0f54 5dba bcd8 a2bd 5696 823a
000000f0: 3eef 803d 3774 013c 8544 853d 0461 c3bc
00000100: d415 81bd a644 7cbd fe85 873d e360 6fbd
00000110: 6c9f 673a 9a38 d4bd a172 9b3b 42df 8bbd
00000120: a373 8f3b 0558 03bd 351d 823c 3e1a 8d3b
00000130: c392 debc e9d8 d2bc a112 1abd b9f1 57bd
00000140: 454e 4cbd b6d1 fd3b eb93 7fbd 2897 9d3c
00000150: ab5d 9bbd 2231 b5bd 59ab 133c 9d09 3abd
00000160: b9d9 0fbd f712 a23d 0eca b1bd f20b 093d
00000170: da90 a63c a22e 09b8 4d0e edbc 6f34 88bd
00000180: 81a5 c93c 7daf ba3c 2e0f d13b 45c3 a23d
00000190: 9921 763d 416f 80ba d728 043c 64a7 113d
000001a0: bdd4 8e3d 3571 e7ba d689 77bd 4914 9abd
000001b0: e787 96bc d7b5 203d fe87 a0bd b1d8 a9b9
000001c0: 6b0a 31bd 9593 84bd 48e5 5ebd faeb 8e3c
000001d0: acf2 a9bd b71d 543d 163f 013d 0fbb 553d
000001e0: 7eca d9bc dad5 033e 4adc 243c a0df aebd
000001f0: 5145 1abd af5d e03d 5182 753d 49ff 703c
-0.030176777 -0.04851232 0.04129901 -0.027742548 0.036499854 0.05046497 -0.010032741 0.11517589
0.04345339 -0.10362304 0.019053087 0.18884212 -0.024419487 0.06936091 -0.09855777 -0.016431363
0.002824793 -0.043147314 -0.0012732767 0.0827404 0.043897353 0.018956026 -0.010203063 0.024186496
-0.026054567 0.09314591 -0.0013522998 0.031610027 0.1136155 -0.07493003 0.06474989 0.047077123
-0.022859754 -0.087035686 0.025772892 -0.0776344 0.14006728 0.06711064 0.015889874 -0.007726666
-0.026957767 0.065662906 -0.022926604 0.12989077 0.04728338 -0.03519787 -0.033447113 -0.06747512
-0.0038959098 0.061301302 -0.015766118 0.076510355 -0.047314793 0.056878027 -6.412656e-05 0.011024213
-0.028288357 -0.00084430067 -0.07951495 0.0009963016 0.06295632 0.007901243 0.0650721 -0.023849972
-0.063029915 -0.061588906 0.06617354 -0.058442008 0.00088357064 -0.103623584 0.0047438894 -0.068296924
0.0043777986 -0.032066364 0.015883068 0.004306107 -0.02716959 -0.025738196 -0.037615422 -0.05272076
-0.04987933 0.0077459468 -0.062396925 0.019237116 -0.07586225 -0.08847262 0.00901302 -0.045419324
-0.035119746 0.079137735 -0.08681117 0.033458658 0.020332742 -3.2706776e-05 -0.028937483 -0.06650626
0.024615051 0.022788757 0.0063799834 0.07947401 0.060090635 -0.0009798781 0.008066378 0.035560027
0.0697417 -0.001765764 -0.060434185 -0.075234 -0.01837535 0.039235916 -0.078384385 -0.0003239564
-0.043222826 -0.064734615 -0.05441788 0.017446507 -0.08298239 0.05178615 0.031554304 0.052180346
-0.026585814 0.12874547 0.010062287 -0.08538747 -0.03766376 0.10955369 0.059938733 0.014709302

conv_layers.1.lin.weight f4 [128, 128]
00000000: abf3 b23c e62d aebc 3acc 19be d4be a439
00000010: 4255 2d3d 6675 c23d 34a4 27bd 8568 a93d
00000020: f7d1 cf3c 8ed4 a4bc 1984 cdbc 26df febd
00000030: 03a3 a8bc c087 f13b 8683 ba3b ca01 443e
00000040: 3f4f d63c e840 3d3e 4b46 073b b2b9 3c3c
00000050: f642 7dbd 5c0c 73bd 67a7 9e3c dd87 7e3e
00000060: 6878 953d 2ac6 b63d e02f 31be b2a1 943d
00000070: 93e6 54be bc17 993d 23a0 17be 6de9 bb3d
00000080: 076b 153d 3137 503d 918b 5f3c c65f c1bc
00000090: ef7c 853d ab7d 74be dd81 823e 76c2 1a3d
000000a0: df6a e33a 0149 083e 812b 3e3e 77b6 eebd
000000b0: 10cc d6be 04f4 803d aeed 2cbd 2ead 9f3b
000000c0: 3929 2d3c cb72 0f3e 0fe5 36bc 04d9 15be
000000d0: d7a6 753c b813 c93a 97f3 8c3c 1f7b 8bbc
000000e0: 51ff d7bc 1872 40be 71ba aebc 249d 603d
000000f0: ff27 073e aa30 433d 5acf 8ebe b400 2b3e
00000100: 68f5 93bd 535b 1c3d a2dd 2abd 9bb3 113d
00000110: c34f 783d 153f c53d ef63 c13d 4f0c 1e3e
00000120: a73e 6d3d 3856 05be 70a2 383e 0ed0 8c3c
00000130: a945 e83c c4db 113e baf6 8d3b 5990 ce3d
00000140: db0f 053d d699 6cbd b257 ab3d c94e 78bd
00000150: ac96 00bd fb2b 403c 9bf1 dcbd 4beb ed3d
00000160: befc 903d fc0f ac3c 8cf4 07bd bdbd a7bd
00000170: e06f 003d 817a 6c3e d408 1fbe 7d6e fb3d
00000180: 4414 71ba 7b9c 69be ba8c 4f3e fffa 633d
00000190: 5f99 febd ec4e 223e fead 0abd 78fc 49be
000001a0: 7aa2 b1bb 5b7a d63c 5328 39be dcfe e13d
000001b0: 6931 103e fc60 1bbc 7d0e 033e f6e4 aa3d
000001c0: 09e6 81bd 6c49 1c3e 13f2 c0bb b819 96bc
000001d0: 4d4a 3a3c f98f 9cbe b1e9 193d b78c 683b
000001e0: 8797 b0bc 6cdc a43d 45f4 e0ba 0b04 293e
000001f0: 7c50 563e 5139 8c3d c519 a33b fdfc 553e
00000200: 88be b13d d389 903b b4e5 0bbe c644 c83a
00000210: a175 0c3c f3ed 363d 4d8e 43bd 28bc 3c3e
00000220: 532b 913d 73f5 c9bc c149 163d 2b7e 0bbd
00000230: 6deb a6bc c488 b13d d9d4 933b 8d83 fd3c
00000240: 48f0 853c 0067 1c3e 3f21 4fb9 aa92 d13d
00000250: 4a43 983d 79da bfba bc9a ac3c b357 3b3e
00000260: 4f05 e73d 1105 283d f906 0dbe 8f43 993c
00000270: 8afd 773d 88dd 693b 23da 30be 1c17 2a3d
00000280: 164f ab3d 6e50 593e ee8b 173c cf71 e43d
00000290: 4b73 4f3e ce98 17be 352c a93e 41ef 2c3d
000002a0: 75d0 ad3a 7e57 68bd 16fe 323d ae50 bcbd
000002b0: 73a6 aebe f9f2 2f3e 157e c93c 5263 b13c
000002c0: f8a4 653c 6cce a83d 78a5 3a3c 61c6 f6bd
000002d0: fd37 cabc 2727 e13d eea3 9e3b 64fb f43b
000002e0: 74d1 c03d 068e 4ebe 4557 30bd 3a9c fd3d
000002f0: c3f1 3a3e d650 2d3e 05a8 20be dd3d eb3d
00000300: 231b 733c c2e4 df3d 0019 dabc 7ec3 d63c
00000310: 184a 4c3d c64e 863d 67e5 323e 3f6d 883e
00000320: bb95 543d 05da 25be 19b3 0f3e e7df 303c
00000330: 8fca 0dbc d136 c23e 572e 943b 0c4b 223e
00000340: 7b70 963d 5740 953d f1ca 233e f459 03be
00000350: 373d 5abd 71a1 413d 2e0c bdbd 2a73 c8bc
00000360: 415b 36bd dac8 bb3c fa35 293e 44e1 6dbe
00000370: 3dd0 f33d c16d 0d3e d4ff 62be 343b e53d
00000380: ea24 29bd a02b a2bd b80d 0c3e 1079 843e
00000390: 371c 7ebd a791 733d 2473 8dbc cf99 c5bd
000003a0: 3bd1 08bd 3bf4 e03c fef9 4ebe f293 583c
000003b0: 9030 8d3d 99d8 5c3d 7529 873e 5262 61bd
000003c0: dc66 1cbd 46ff 7bbd 39c7 4abc 84ce a83c
000003d0: a189 c13c 991b 60be 46d6 473d 189c de3c
000003e0: b2a0 6f3e b1a5 d03d 98c8 8a3d 15d6 9e3d
000003f0: bd4f ec3d 9d73 613d 86f0 363c f342 e63d
0.021844706 -0.02126212 -0.15019313 0.00031422696 0.042317636 0.09495048 -0.04092808 0.08271889
0.025368674 -0.020120885 -0.025087403 -0.12444906 -0.020585543 0.007370919 0.0056919483 0.19141307
0.026160834 0.18481791 0.0020641263 0.011518883 -0.061831437 -0.05933796 0.019366933 0.24856515
0.07298356 0.089245155 -0.17303419 0.072574034 -0.20791082 0.0747523 -0.14807181 0.09175382
0.036479022 0.050833885 0.013644115 -0.023605239 0.0651797 -0.23876064 0.25489703 0.03778311
0.0017350576 0.13309099 0.18571283 -0.11655896 -0.41952562 0.06296542 -0.042218857 0.0048729395
0.01056891 0.14008634 -0.01116301 -0.14633566 0.014993391 0.001534096 0.017205996 -0.017026482
-0.026366862 -0.18793523 -0.021329137 0.05483736 0.13198851 0.04765383 -0.27892572 0.16699487
-0.07224542 0.03817303 -0.04171527 0.035571676 0.06062294 0.096311726 0.09442889 0.15434383
0.057921078 -0.13021171 0.18030715 0.017189052 0.028353529 0.1424399 0.0043323906 0.10086126
0.032485824 -0.057763897 0.08366336 -0.06062201 -0.031393692 0.011729236 -0.1078827 0.11617144
0.07079457 0.021003716 -0.033192202 -0.081904866 0.031356692 0.23093607 -0.15530711 0.12276933
-0.000919644 -0.22813599 0.20268527 0.05565929 -0.12431597 0.15850419 -0.033857338 -0.19725215
-0.00542098 0.02618139 -0.18081789 0.11034939 0.14081348 -0.009483572 0.12798496 0.08344452
-0.06342704 0.15262383 -0.0058882325 -0.01832281 0.011370254 -0.30578592 0.03757638 0.0035484263
-0.021556629 0.08049855 -0.0017162642 0.16505449 0.2092914 0.0684687 0.004977437 0.20897289
0.08678919 0.004410961 -0.13661844 0.0015279285 0.008572967 0.04466052 -0.04774313 0.18431151
0.070883416 -0.024653172 0.03669143 -0.03405587 -0.020375932 0.08668664 0.0045114574 0.030946517
0.016349927 0.15273666 -0.00019753443 0.10233052 0.07434709 -0.0014637253 0.021069877 0.18295173
0.112803094 0.041020457 -0.13772191 0.018708972 0.060544528 0.0035685021 -0.17270713 0.041525945
0.08364694 0.21222088 0.00924967 0.1115452 0.20258825 -0.14804384 0.3304154 0.042220358
0.0013260978 -0.056724064 0.043699346 -0.09195076 -0.34111366 0.1718253 0.024596253 0.021653805
0.014016382 0.08242497 0.01139199 -0.120495565 -0.0246849 0.10993796 0.0048413193 0.007476257
0.0941495 -0.20171365 -0.043051977 0.123833135 0.18256287 0.16925368 -0.15689094 0.11486409
0.014838013 0.10932304 -0.026623249 0.026216265 0.04987535 0.065579936 0.17470323 0.26645848
0.051900607 -0.16196449 0.14033164 0.01079557 -0.008654251 0.37932447 0.0045221257 0.1584894
0.07345673 0.072876625 0.15995385 -0.12827283 -0.053281035 0.047273103 -0.09230839 -0.024468977
-0.04452062 0.022922922 0.16524497 -0.23230463 0.11904953 0.13811399 -0.22167903 0.11192933
-0.04129497 -0.07918477 0.13677108 0.25873613 -0.062038627 0.059465077 -0.017266817 -0.09648477
-0.033402663 0.027460208 -0.20212552 0.013218867 0.06894028 0.0539175 0.26398817 -0.055025406
-0.03818403 -0.061522745 -0.0123766 0.020606287 0.023625197 -0.21885528 0.04878833 0.02717404
0.23401144 0.10187853 0.067765415 0.07755677 0.11538646 0.055041898 0.011165744 0.11243238
